PARAMETERS SAVED FROM THE TRAINING

 This model has been trained for learning the first 6 digits from the MNIST dataset, this is the FROZEN MODEL

 Batch size:       60
 Epochs:           30
 Metrics:          ['accuracy']
 Optimizer:        adam
 Loss:             SparseCategoricalCrossentropy 

Model: "sequential_2"
_________________________________________________________________
Layer (type)                 Output Shape              Param #   
=================================================================
conv2d_1 (Conv2D)            (None, 26, 26, 32)        320       
_________________________________________________________________
conv2d_2 (Conv2D)            (None, 24, 24, 32)        9248      
_________________________________________________________________
max_pooling2d_1 (MaxPooling2 (None, 12, 12, 32)        0         
_________________________________________________________________
dropout (Dropout)            (None, 12, 12, 32)        0         
_________________________________________________________________
flatten_1 (Flatten)          (None, 4608)              0         
_________________________________________________________________
dense_1 (Dense)              (None, 128)               589952    
_________________________________________________________________
dropout_1 (Dropout)          (None, 128)               0         
=================================================================
Total params: 599,520
Trainable params: 599,520
Non-trainable params: 0
_________________________________________________________________
