PARAMETERS SAVED FROM THE TRAINING

 This model has been trained for learning the first 6 digits from the MNIST dataset, this is the FROZEN MODEL

 Batch size:       60
 Epochs:           30
 Metrics:          ['accuracy']
 Optimizer:        adam
 Loss:             SparseCategoricalCrossentropy 

Model: "sequential_4"
_________________________________________________________________
Layer (type)                 Output Shape              Param #   
=================================================================
conv2d_5 (Conv2D)            (None, 26, 26, 64)        640       
_________________________________________________________________
max_pooling2d_5 (MaxPooling2 (None, 13, 13, 64)        0         
_________________________________________________________________
conv2d_6 (Conv2D)            (None, 11, 11, 8)         4616      
_________________________________________________________________
max_pooling2d_6 (MaxPooling2 (None, 5, 5, 8)           0         
_________________________________________________________________
dropout_4 (Dropout)          (None, 5, 5, 8)           0         
_________________________________________________________________
flatten_3 (Flatten)          (None, 200)               0         
_________________________________________________________________
dense_5 (Dense)              (None, 128)               25728     
_________________________________________________________________
dropout_5 (Dropout)          (None, 128)               0         
=================================================================
Total params: 30,984
Trainable params: 30,984
Non-trainable params: 0
_________________________________________________________________
